app/src/main/assets/sentiment_analysis.tflite (tflite, 775494 bytes, 5 tensors)

sequential/embedding/embedding_lookup/86967 f4 [10003, 16]
000000 68 00 59 3c eb ef 11 3c ef f3 e5 bc c3 44 9f bc
       0.013244726 0.008907299 -0.028070418 -0.019441968
000010 62 40 82 bc 52 22 d9 39 52 f5 c6 bc 99 54 77 3c
       -0.01589984 0.00041415036 -0.0242869 0.015095853
000020 c2 55 61 3a 38 1b d8 3c c6 4b 6c 3c 1c c4 cd b9
       0.0008595848 0.026380166 0.014422363 -0.0003924676
000030 fe 79 48 bc 38 1a 7a 3b 29 06 fe bb ac d8 d6 bb
       -0.012236116 0.00381626 -0.007752199 -0.006556591
000040 b3 1f f5 bd fc c0 ff bd 59 a3 6c 3d ff 81 a4 3d
       -0.11968937 -0.12487981 0.057772968 0.08032607
000050 bc 96 a3 3d 92 b6 07 be 57 e1 9d 3d 1f 93 95 3d
       0.07987735 -0.13253239 0.07708996 0.07303452
000060 14 66 58 3d 69 ff 08 be 0b 30 98 bd 61 b8 e9 3d
       0.052831724 -0.13378681 -0.074310385 0.114121206
000070 20 ca a1 3d 65 3d 82 bd 34 d9 ff 3d ea b6 db bd
       0.078998804 -0.06359366 0.124926 -0.107282475
000080 aa f1 8a 3d d7 ec 39 be 46 a1 81 3e a6 2f 3c 3d
       0.06784375 -0.18156753 0.25318354 0.04594388
000090 db 66 33 3e 80 7b 0b 3e d1 b4 fa 3e 13 c6 a0 3d
       0.17519705 0.1362133 0.48966077 0.0785028
0000a0 7e f8 1b 3e 93 a6 68 bd 04 1f 92 be 2f e3 18 3e
       0.15231511 -0.056799483 -0.28539288 0.14930414
0000b0 a4 94 40 3e 1b 30 08 bd 21 76 81 bd 9b 1c 06 bd
       0.18806702 -0.033249002 -0.063213594 -0.032742124
0000c0 43 c8 d3 ba 33 a1 93 bd 80 aa 3f 3e aa 2d c3 3d
       -0.0016157705 -0.07208481 0.18717384 0.09530194
0000d0 02 cf 35 3e e1 e4 0f 3c 04 5f c2 3e 6a 52 d5 3d
       0.17754748 0.008782596 0.37963116 0.1041611
0000e0 53 4c b1 3d 25 56 e6 bd 65 94 2c be b9 f2 0b 3e
       0.08657136 -0.112468995 -0.16853483 0.1366681
0000f0 8c ce 8f 3d d8 33 d3 3c 02 71 06 3d 9d 55 96 bd
       0.070218176 0.025781557 0.032822616 -0.07340548
000100 8f 64 a7 bd f1 db c1 bd 1b dd 28 3e fe f1 dc 3d
       -0.08173477 -0.094657786 0.16490595 0.10788344
000110 11 0f 08 3e 32 7e a9 bc 41 b8 77 3e 63 92 17 3e
       0.13286997 -0.020690057 0.24191381 0.14801936
000120 82 ff ec 3d 75 dc e5 bd 28 a9 28 be d3 05 ab 3d
       0.11572172 -0.112236895 -0.16470778 0.0835072
000130 de 35 d7 3d b4 55 03 bc 37 9d c0 3d e8 9a 9b bd
       0.10508321 -0.008016039 0.09404986 -0.075979054
000140 2b 08 35 bd ac 3d 33 bb 37 38 53 bd 71 1e ff 3b
       -0.044197243 -0.0027349992 -0.051567283 0.0077856113
000150 e0 e0 55 b8 91 bc 0e be 6b 48 a5 bd b7 cc 07 bc
       -5.099259e-05 -0.1393912 -0.08070453 -0.008288554
000160 fd a4 b3 3c 72 82 a8 3c 5b ad 0c 3d 6d 61 b0 bd
       0.021929258 0.020570014 0.034345012 -0.086123325
000170 5e 4d 57 bd b6 a2 14 3b 9d 8f 45 3d 9b c3 c4 3c
       -0.052564017 0.002267999 0.048232663 0.024019053
000180 f4 fd 3a be 4a 5f 39 be 5f 5f 70 3e 90 4e 7a 3e
       -0.18260938 -0.18102756 0.23473881 0.24444032
000190 cc a3 5e 3e ac 23 27 be a2 a8 4e 3e 30 3a 69 3e
       0.21742171 -0.16322201 0.20181516 0.22776103
0001a0 5d 23 7e 3e 6a cf 4d be 56 04 61 be 51 ec 61 3e
       0.24818178 -0.20098653 -0.2197431 0.22062804
0001b0 07 d9 20 3e bb 65 13 be 46 65 2f 3e d1 15 1b be
       0.1570779 -0.14394276 0.17128477 -0.15145041
0001c0 92 c4 92 3b 7e c7 3d be b8 20 99 3e d0 41 ef 3d
       0.0044789994 -0.18533131 0.29907775 0.116824746
0001d0 17 65 9b 3e 39 66 7c bc 66 bb dc 3e 1f 27 f0 3d
       0.30350563 -0.015405231 0.43111724 0.11726212
0001e0 c6 30 00 3e 93 ae 40 be 91 5c 99 be ae b1 80 3e
       0.12518606 -0.18816595 -0.29953435 0.2513556
0001f0 f1 eb 94 3e 3c 1d ea bd 2c 2a a4 3d 80 6b aa bd
       0.2908626 -0.11431357 0.08015856 -0.08321285
000200 09 71 56 bc e8 bf 4c be 98 a0 87 3e 64 13 e2 3d
       -0.013088473 -0.19995081 0.2648971 0.11038855
000210 da 13 34 3e ab b7 76 bc 7d ba ea 3e 75 ea 2c 3e
       0.17585698 -0.015058438 0.45845404 0.16886313
000220 c8 93 09 3e 6b ff 3f be a0 08 89 be 4b 60 6c 3e
       0.1343528 -0.18749778 -0.26764393 0.23083608
000230 96 cb 36 3e 4b bc 9d bd c0 01 91 3d 80 a9 8a bd
       0.178511 -0.0770193 0.07080412 -0.06770611
000240 6b 87 d4 bd a9 99 30 be 92 17 ec 3d 07 b2 d8 3d
       -0.103773914 -0.17246117 0.11527933 0.10580831
000250 1f a5 e6 3d 5c a2 87 bd 93 7b 2a 3e 30 d0 4f 3d
       0.11261963 -0.066227645 0.16648702 0.050735652
000260 13 66 32 3e 63 ab 5f be 75 20 e8 bd fe dd b9 3d
       0.1742175 -0.21842723 -0.11334316 0.09075545
000270 08 a7 24 3e 6e d6 b0 bd a2 41 ef 3d b9 47 1e be
       0.16079342 -0.08634649 0.1168244 -0.15457048
000280 d3 dd 40 3c 75 88 81 bd 8f 55 a9 3d f6 95 12 3d
       0.011771637 -0.06324855 0.08268272 0.035787545
000290 91 18 ca 3d cb 7f 8e 3d bf d6 a7 3e 43 fa d7 3d
       0.09867967 0.06957968 0.32781026 0.105457805
0002a0 c3 1e 00 3d b3 7b 1d bd 0c f5 a7 bd 4b 6a 20 3d
       0.031279337 -0.038448047 -0.08201036 0.03916387
0002b0 52 f0 4e 3d 2e 7a 04 3d d7 b7 fd bb 6c 75 73 3d
       0.050522156 0.032343082 -0.0077428627 0.059438154
0002c0 cf 56 33 be fe 1b 1d be e7 d4 2b 3e 31 e0 2f 3e
       -0.17513584 -0.1534271 0.16780435 0.17175366
0002d0 80 fd f9 3d 99 1c 05 be 31 d6 35 3e 1b 7f 18 3e
       0.122065544 -0.1299919 0.17757489 0.14892237
0002e0 84 06 e8 3d 5a 4d 08 be cb 83 0b be 14 90 b3 3d
       0.11329368 -0.13310757 -0.13624494 0.08767715
0002f0 82 46 27 3e 23 02 d9 bd d4 fb 0d 3e eb 5b 28 be
       0.1633549 -0.10596111 0.13865596 -0.16441314
000300 5f 80 55 3e 26 ec 24 bc 7a d1 19 3e c0 0f 8b bd
       0.20849751 -0.010066068 0.15021315 -0.067901134
000310 8e 27 be 3c 33 19 4c 3e 2f 81 ac 3e e5 9c a1 bd
       0.02321222 0.19931488 0.3369231 -0.078912534
000320 27 13 1c 3d 29 32 95 3b ee 26 e4 bd 6d 2b ee 3c
       0.038104203 0.0045530987 -0.11140238 0.029073441
000330 21 f7 6c 3d d9 7a 6f 3d e8 f5 e4 bd 98 b0 25 3d
       0.057852868 0.058466766 -0.111797154 0.040451616
000340 b3 d0 61 be 5b 78 87 be 95 31 2e 3e f6 fd 73 3e
       -0.22052269 -0.2645901 0.17011102 0.23827347
000350 5f c9 2f 3e 39 49 69 be ad 10 83 3e cc 79 27 3e
       0.1716666 -0.22781838 0.2559866 0.16355056
000360 eb 0c 2f 3e 37 bb 92 be b8 ac 54 be e5 ab 59 3e
       0.17094772 -0.2865846 -0.20769012 0.21256979
000370 c4 9c 51 3e 48 7f 80 be 1b 19 80 3e cd 88 42 be
       0.20469958 -0.25097108 0.25019154 -0.18997498
000380 e2 83 c8 3d 31 c6 c8 3d d0 b2 b7 bd d9 4c 22 be
       0.0979078 0.09803427 -0.08969653 -0.15849628
000390 fb 18 25 be 5c d0 fa bb a3 1d a5 bd 92 d6 ea bd
       -0.1612281 -0.007654233 -0.080622934 -0.11466707
0003a0 d0 84 fc bd 20 58 14 3e 9b 83 a4 3d 36 37 b8 bd
       -0.123300195 0.14486742 0.08032914 -0.08994906
0003b0 d9 84 98 bd b8 b2 ce 3d 30 49 92 bd c4 4a 7a 3d
       -0.07447214 0.10092682 -0.07142866 0.06110646
0003c0 e4 f2 db bd ef 81 26 3d 3d e5 ca bd 20 87 83 bd
       -0.10739687 0.040651258 -0.09907005 -0.064222574
0003d0 9d 70 a2 bd a6 41 05 be 6e 7c 1d be a0 9b 24 3c
       -0.079316355 -0.13013324 -0.15379497 0.0100468695
0003e0 da e8 b6 bc 18 7d c8 3c 2d 5c bd 3d 66 48 f1 bc
       -0.02232783 0.024473712 0.09246097 -0.029453468
0003f0 93 ee 4d bd e9 c9 b4 3a 2d ff b7 3d 68 31 77 3c
       -0.05027635 0.0013793084 0.08984218 0.015087463

sequential/dense_1/BiasAdd/ReadVariableOp/resource f4 [2]
000000 00 e6 21 3f 01 e6 21 bf
       0.6324158 -0.63241583

sequential/dense/BiasAdd/ReadVariableOp/resource f4 [16]
000000 d3 c6 cf bd 74 f2 ad bd dd cd 79 bc e6 99 dd 3d
       -0.101453446 -0.0849351 -0.015246836 0.108203694
000010 e2 f9 cf bc bc 7b d0 bd ca c3 d1 bb 0d e2 a3 bc
       -0.025387708 -0.101798505 -0.0064015137 -0.02000525
000020 87 30 e5 3d 00 10 9c bd 86 ee a1 bc 0d ba c1 bd
       0.111908965 -0.07620239 -0.019767057 -0.094593145
000030 2e 25 15 3d 00 00 00 00 2a e5 db bd 59 3d ea bd
       0.03641241 0.0 -0.10737069 -0.114374824

sequential/dense/MatMul f4 [16, 16]
000000 66 93 21 3e 7b e2 44 40 71 cc 15 bf f3 a2 22 bf
       0.15778884 3.0763233 -0.5851508 -0.6352989
000010 59 ed c8 bf 81 94 1e 40 37 f9 45 bf 21 d5 4e 3e
       -1.5697433 2.477814 -0.77333397 0.2019849
000020 85 e0 45 bf 5b 05 2d 3f 09 60 f4 3e 59 4d 82 bf
       -0.77295715 0.67586297 0.4772952 -1.0179855
000030 22 0d a6 bf da e4 f0 3f 16 cb 63 bf 66 74 0b 3f
       -1.2972758 1.881984 -0.8898176 0.54474485
000040 8e b1 fe 3e 37 a0 4f 40 ce 43 34 bf fa 13 12 bf
       0.49744838 3.2441537 -0.7041596 -0.5706173
000050 bc 9e 82 bf 78 49 29 40 7c 2d 53 bf 45 bd 16 bf
       -1.0204692 2.6451092 -0.8249128 -0.5888255
000060 65 34 ea be 12 b7 81 3e 12 87 76 3f 1c a2 97 bf
       -0.457431 0.25334984 0.9629985 -1.1846347
000070 9a ca 9d bf c0 5e 25 40 54 da 6a bf 6b 9b 87 3e
       -1.2327454 2.583908 -0.9173939 0.26485762
000080 41 b6 b1 3e 85 12 95 be dd 21 94 3e 31 73 3f 3d
       0.3470936 -0.29115692 0.28932086 0.046740714
000090 69 cb ab be 15 69 7a be e9 92 e5 3d 77 9f 7e be
       -0.33553627 -0.24454148 0.112096615 -0.24865519
0000a0 1a 76 10 bd 01 7a 81 3e 07 e2 30 be 8a a7 9f be
       -0.03526888 0.25288394 -0.17273723 -0.3118251
0000b0 7e 94 40 3e ac b2 a7 be 11 ec 79 3e e3 83 fc bd
       0.18806645 -0.32753503 0.24406458 -0.12329843
0000c0 d1 1d 64 bf b3 81 30 c0 4f 41 67 3e 92 68 6e 3f
       -0.89107996 -2.7579162 0.22583507 0.9312831
0000d0 e0 04 63 3f 1b 91 a8 c0 96 a6 2f be 20 b8 0a 3f
       0.88679314 -5.267713 -0.17153391 0.541872
0000e0 96 c8 b4 3f a9 ae d0 be a4 1e a8 be 54 fd 8a 3f
       1.4123714 -0.40758255 -0.32835877 1.085856
0000f0 7e fd 4b 3f d9 f0 5c c0 36 1b af 3f 0c 48 f2 be
       0.79683673 -3.4522002 1.3680179 -0.47320592
000100 c0 67 eb bd 44 74 b2 3d 84 a0 25 bd 4a 63 b6 3d
       -0.11494398 0.08713582 -0.040436283 0.08905657
000110 eb 0c b7 3e e7 42 6a bd 61 5d 35 3d 69 6b d0 bd
       0.35752043 -0.05719271 0.044278506 -0.10176737
000120 e8 fe 9f 3d 6c 42 0d bd 15 4a 8d bd ba 1b bc 3e
       0.078122914 -0.034487173 -0.06898896 0.36739904
000130 43 fc 2c 3e a5 b7 ae 3e bb 12 f5 3c db fc 9c 3d
       0.16893105 0.34124485 0.029916158 0.07665416
000140 54 72 48 3f 53 a8 3a 40 21 f5 5a bf 08 bf 56 bf
       0.7829945 2.9165237 -0.8553029 -0.8388524
000150 d0 41 bd bf 44 a9 2e 40 50 44 fd bd de 5a a1 be
       -1.4785709 2.7290812 -0.12366545 -0.3151464
000160 01 ac 28 bf 99 1f 07 3f 2d 0d 6d 3f 06 63 93 bf
       -0.6588746 0.5278259 0.9259823 -1.1514595
000170 78 0a a9 bf 95 ca 02 40 e9 cf 28 bf 6d ec 27 3f
       -1.320632 2.0436146 -0.65942246 0.6559513
000180 fd 12 1f 3d 3e c4 b5 bd 9f f8 38 3e a2 bd ce 3e
       0.038836468 -0.08875321 0.18063591 0.40379053
000190 1f fc 14 3d 98 4f 5b 3e 89 59 ab 3b 07 ae 72 3e
       0.036373254 0.21417081 0.0052291793 0.23699199
0001a0 a6 ac 94 be 0f 03 63 3e 07 d8 8d 3d 55 ec 9d be
       -0.2903797 0.22169136 0.069259696 -0.3084437
0001b0 1a 09 ba 3e 18 a7 66 bd 09 37 4c be b7 85 2d 3b
       0.3633507 -0.056311697 -0.19942869 0.0026477405
0001c0 89 87 ce be 23 16 c1 bc 24 9e ba be 0f 1b a9 3e
       -0.4033778 -0.023570126 -0.36448777 0.33028457
0001d0 91 c7 a7 3e 01 2a 61 3e 34 6e 85 be 18 ea 21 be
       0.32769445 0.2198868 -0.2606064 -0.15811956
0001e0 61 4f 6f be a9 91 05 3e 01 16 3f be c4 b3 cd bd
       -0.23370124 0.13043846 -0.18660738 -0.10044053
0001f0 ea 8c 53 3e ad 0b 78 be 72 af a7 be 71 c0 02 be
       0.20659223 -0.24223204 -0.32751042 -0.12768723
000200 4a 4a 5f bf c4 0f 25 c0 c2 20 a6 3e 5c ab 2b 3f
       -0.8722273 -2.5790873 0.32446867 0.6705835
000210 18 39 49 3f f0 00 91 c0 1d 63 e3 be 9b d5 0c 3e
       0.78602743 -4.5313644 -0.44411555 0.13753359
000220 76 e0 0a 3f de 6f 1b bf 73 d3 97 be e6 1c a1 3f
       0.5424875 -0.6071757 -0.2965351 1.2586944
000230 71 16 8f 3f 5c ed 37 c0 be e4 97 3f 2a 42 4d bf
       1.1178724 -2.8738623 1.1866682 -0.80179083
000240 ca 0e de 3e 91 f4 4a 40 21 0b 5d bf 1b 99 7b bf
       0.43370658 3.1711771 -0.86345106 -0.98280495
000250 14 49 ca bf fb 55 2a 40 59 bd 15 bf 75 6e fb bd
       -1.5803552 2.6614978 -0.58492047 -0.122769274
000260 09 c1 88 bf 7b ba 40 3e 9a fe a5 3e 79 5c bb bf
       -1.068391 0.18821137 0.32420808 -1.4637595
000270 e6 d1 a7 bf d4 f6 0b 40 c6 29 74 bf 49 91 eb 3e
       -1.3110931 2.1869402 -0.9537624 0.4600928
000280 6d 9c 9b 3e 0e cf 25 bc e1 a4 4b bd 63 15 42 3d
       0.3039278 -0.010120166 -0.049717788 0.047383677
000290 0b 65 c6 be 50 6f 4f 3d 46 f7 48 bd 4a 54 9e be
       -0.38748965 0.050643265 -0.049063943 -0.30923682
0002a0 f7 b9 3f 3e 0b 38 6f 3e 57 cf 3e be 66 9a 36 bc
       0.18723284 0.23361222 -0.18633781 -0.01114521
0002b0 b1 fa 2b 3e d7 40 b5 be 13 95 34 bd 4d e2 32 be
       0.1679485 -0.3540103 -0.04408748 -0.1746914
0002c0 b3 5c 8d 3e 2d e9 37 40 97 a0 19 bf 20 fb 7e bf
       0.27609786 2.873607 -0.60010666 -0.99601936
0002d0 39 89 89 bf f6 38 31 40 8b d0 d6 be cc de 5e be
       -1.0745002 2.7691016 -0.4195598 -0.21764678
0002e0 8a e9 71 bf 64 61 1f 3f 67 37 3a 3f 31 cf 95 bf
       -0.9449698 0.6225798 0.7274079 -1.1703855
0002f0 e5 5b b3 bf ad 4a 17 40 5b fa 2c bf 8c 82 0e 3e
       -1.4012419 2.3639328 -0.6756951 0.13916987
000300 33 58 06 3f ad 44 84 3e 2a 11 7f be 69 ff 2f be
       0.5247833 0.25833645 -0.24908891 -0.17187275
000310 93 33 e7 be 9e 8e b4 3f 79 19 44 3e cc d5 33 bc
       -0.45156536 1.4106023 0.19150342 -0.010976266
000320 89 f0 e4 be ce cf 42 3e d9 6f cd bd f3 6c 4f bf
       -0.44714764 0.19024584 -0.10031099 -0.8102562
000330 4a 68 ef be 4f 7b ba 3e 75 79 13 bf f4 f6 09 3f
       -0.46759254 0.36422202 -0.57607204 0.53892446
000340 cd be d3 be 38 bf 7c be 14 4a c6 be 4e 9b 51 3e
       -0.41356507 -0.24682319 -0.38728392 0.204694
000350 86 03 6a be 7a 81 56 3e 13 57 b7 3e f0 75 f0 3c
       -0.22852907 0.20947829 0.3580862 0.029353112
000360 72 64 14 be a3 11 be be 59 b1 94 be 70 fb 4e be
       -0.14491442 -0.3712283 -0.29041556 -0.20213103
000370 e7 5e 6f be a3 de a9 3e e0 5e d5 bd 28 b8 dc bd
       -0.23376046 0.3317767 -0.104184866 -0.107773125
000380 21 2f 0f 3f 1c 42 2b 40 e3 af 04 bf 65 5b ea be
       0.5593129 2.67591 -0.5183088 -0.45772853
000390 88 cd a6 bf 36 7b 2e 40 b7 c3 ab be c5 ab 27 be
       -1.3031473 2.7262702 -0.33547756 -0.16374119
0003a0 05 bd 64 bf 78 20 47 3f 9e f4 c1 3e 3f 07 b1 bf
       -0.8935092 0.7778392 0.3788194 -1.3830336
0003b0 90 ff db bf e3 28 29 40 87 be 9a bf 57 af 05 3e
       -1.7187366 2.6431205 -1.2089394 0.13055168
0003c0 35 ed 4c 3f 1d bc 44 40 fe df 53 bf e0 88 4a bf
       0.8004945 3.0739815 -0.8276366 -0.79115105
0003d0 3f ee 8a bf fe f9 22 40 43 6c 1f bf 9a ea 19 bf
       -1.0853957 2.5465083 -0.6227457 -0.601236
0003e0 e6 e2 81 bf 07 61 ec 3e 4d 78 1b 3f d7 8c 71 bf
       -1.0147369 0.46167776 0.6073044 -0.9435553
0003f0 32 88 7b bf 81 fa 19 40 c1 7e 9a bf 88 ea de 3e
       -0.9825469 2.4059145 -1.2069932 0.43538308

sequential/dense_1/MatMul f4 [2, 16]
000000 c0 2f 15 c0 d6 6c 22 c0 c1 89 ee be 71 c1 28 40
       -2.3310394 -2.5378928 -0.46589473 2.6368067
000010 46 f1 95 3d f1 6d 2c c0 c1 f5 1a 3d a2 6e f7 be
       0.0732141 -2.6942103 0.037832025 -0.48326594
000020 06 c2 19 40 1c 39 05 c0 e7 8c 9a 3e 77 5d 05 c0
       2.4024673 -2.0816107 0.30185625 -2.0838296
000030 48 5d 39 bf f0 1f 86 3e ee ad 0d c0 ca 7c 20 c0
       -0.7240796 0.2619624 -2.2137408 -2.5076165
000040 e7 8b 1f 40 88 cc ef 3f ba 2e e9 bd c7 ea 0f c0
       2.492914 1.8734293 -0.113858655 -2.2487047
000050 64 b6 9c 3e cc 7e 1d 40 20 69 d7 be a9 1e 44 be
       0.30607903 2.460864 -0.42072392 -0.19152321
000060 e3 08 24 c0 41 f0 18 40 ac b1 0e bf 0b b6 1c 40
       -2.5630424 2.389664 -0.55739856 2.448611
000070 b7 e8 af 3e 04 09 7a 3e 71 87 f4 3f 94 3b 18 40
       0.34357235 0.24417502 1.9103833 2.3786364
